ST Edge AI Core v2.2.0-20266 2adc00962
Created date          : 2026-04-02 14:16:34
Parameters            : generate --target stm32f7 --name quantized_a025_pt_36porciento -m C:/Users/juanm/Documents/Documents/Canada/SessionHiver2026/Sys800/projet/modelesonnx/mobilenet_a025_pt_int8.onnx --compression none --verbosity 1 -O ram --workspace C:/Users/juanm/AppData/Local/Temp/mxAI_workspace301446855222800992183607497720056 --output C:/Users/juanm/.stm32cubemx/quantized_a025_pt_36porciento_output

Exec/report summary (generate)
------------------------------------------------------------------------------------------------------------------------------------------
model file         :   C:\Users\juanm\Documents\Documents\Canada\SessionHiver2026\Sys800\projet\modelesonnx\mobilenet_a025_pt_int8.onnx   
type               :   onnx                                                                                                               
c_name             :   quantized_a025_pt_36porciento                                                                                      
compression        :   none                                                                                                               
options            :   allocate-inputs, allocate-outputs                                                                                  
optimization       :   ram                                                                                                                
target/series      :   stm32f7                                                                                                            
workspace dir      :   C:\Users\juanm\AppData\Local\Temp\mxAI_workspace301446855222800992183607497720056                                  
output dir         :   C:\Users\juanm\.stm32cubemx\quantized_a025_pt_36porciento_output                                                   
model_fmt          :   sa/sa per tensor                                                                                                   
model_name         :   mobilenet_a025_pt_int8                                                                                             
model_hash         :   0x28e055c59e899589aad6f059421b16a8                                                                                 
params #           :   236,036 items (922.02 KiB)                                                                                         
------------------------------------------------------------------------------------------------------------------------------------------
input 1/1          :   'input', int8(1x3x224x224), 147.00 KBytes, QLinear(0.015383603,-5,int8), activations                               
output 1/1         :   'output_QuantizeLinear_Input', int8(1x100), 100 Bytes, QLinear(0.365595728,95,int8), activations                   
macc               :   40,890,516                                                                                                         
weights (ro)       :   244,544 B (238.81 KiB) (1 segment) / -699,600(-74.1%) vs float model                                               
activations (rw)   :   301,060 B (294.00 KiB) (1 segment) *                                                                               
ram (total)        :   301,060 B (294.00 KiB) = 301,060 + 0 + 0                                                                           
------------------------------------------------------------------------------------------------------------------------------------------
(*) 'input'/'output' buffers are allocated in the activations buffer

Model name - mobilenet_a025_pt_int8
------ ---------------------------------------------------------------- ------------------------ ---------------- ----------- -------------------------------- --- ------------------- ------------------- --------------- 
m_id   layer (type,original)                                            oshape                   param/size              macc                     connected to   | c_size              c_macc              c_type          
------ ---------------------------------------------------------------- ------------------------ ---------------- ----------- -------------------------------- --- ------------------- ------------------- --------------- 
0      input (Input, )                                                  [b:1,h:224,w:224,c:3]                                                                    |                                         
------ ---------------------------------------------------------------- ------------------------ ---------------- ----------- -------------------------------- --- ------------------- ------------------- --------------- 
4      input_QuantizeLinear_Output (Conversion, QuantizeLinear)         [b:1,h:224,w:224,c:3]                         301,056                            input   |                     -301,056(-100.0%)   
------ ---------------------------------------------------------------- ------------------------ ---------------- ----------- -------------------------------- --- ------------------- ------------------- --------------- 
59     output_bias_const (Placeholder, DequantizeLinear)                [b:100]                  100/400                                                         | -400(-100.0%)                           
------ ---------------------------------------------------------------- ------------------------ ---------------- ----------- -------------------------------- --- ------------------- ------------------- --------------- 
60     output_weight_Dequ..tput_const (Placeholder, DequantizeLinear)   [b:100,c:256]            25,600/102,400                                                  | -102,400(-100.0%)                       
------ ---------------------------------------------------------------- ------------------------ ---------------- ----------- -------------------------------- --- ------------------- ------------------- --------------- 
61     input_DequantizeLinear_Output (Conversion, DequantizeLinear)     [b:1,h:224,w:224,c:3]                         301,056      input_QuantizeLinear_Output   |                     -301,056(-100.0%)   
------ ---------------------------------------------------------------- ------------------------ ---------------- ----------- -------------------------------- --- ------------------- ------------------- --------------- 
62     _features_init_blo..u_output_0 (Conv2D, Conv)                    [b:1,h:112,w:112,c:8]    224/896            2,709,512    input_DequantizeLinear_Output   | -648(-72.3%)                            Conv2D_[1]      
------ ---------------------------------------------------------------- ------------------------ ---------------- ----------- -------------------------------- --- ------------------- ------------------- --------------- 
63     _features_init_blo..ear_Output (Conversion, QuantizeLinear)      [b:1,h:112,w:112,c:8]                         200,704   _features_init_blo..u_output_0   |                     -200,704(-100.0%)   
------ ---------------------------------------------------------------- ------------------------ ---------------- ----------- -------------------------------- --- ------------------- ------------------- --------------- 
64     _features_init_blo..ear_Output (Conversion, DequantizeLinear)    [b:1,h:112,w:112,c:8]                         200,704   _features_init_blo..ear_Output   |                     -200,704(-100.0%)   
------ ---------------------------------------------------------------- ------------------------ ---------------- ----------- -------------------------------- --- ------------------- ------------------- --------------- 
65     _features_stage1_u..u_output_0 (Conv2D, Conv)                    [b:1,h:112,w:112,c:8]    80/320               903,176   _features_init_blo..ear_Output   | -216(-67.5%)                            Conv2D_[2]      
------ ---------------------------------------------------------------- ------------------------ ---------------- ----------- -------------------------------- --- ------------------- ------------------- --------------- 
66     _features_stage1_u..ear_Output (Conversion, QuantizeLinear)      [b:1,h:112,w:112,c:8]                         200,704   _features_stage1_u..u_output_0   |                     -200,704(-100.0%)   
------ ---------------------------------------------------------------- ------------------------ ---------------- ----------- -------------------------------- --- ------------------- ------------------- --------------- 
67     _features_stage1_u..ear_Output (Conversion, DequantizeLinear)    [b:1,h:112,w:112,c:8]                         200,704   _features_stage1_u..ear_Output   |                     -200,704(-100.0%)   
------ ---------------------------------------------------------------- ------------------------ ---------------- ----------- -------------------------------- --- ------------------- ------------------- --------------- 
68     _features_stage1_u..u_output_0 (Conv2D, Conv)                    [b:1,h:112,w:112,c:16]   144/576            1,605,648   _features_stage1_u..ear_Output   | -384(-66.7%)                            Conv2D_[3]      
------ ---------------------------------------------------------------- ------------------------ ---------------- ----------- -------------------------------- --- ------------------- ------------------- --------------- 
69     _features_stage1_u..ear_Output (Conversion, QuantizeLinear)      [b:1,h:112,w:112,c:16]                        401,408   _features_stage1_u..u_output_0   |                     -401,408(-100.0%)   
------ ---------------------------------------------------------------- ------------------------ ---------------- ----------- -------------------------------- --- ------------------- ------------------- --------------- 
70     _features_stage1_u..ear_Output (Conversion, DequantizeLinear)    [b:1,h:112,w:112,c:16]                        401,408   _features_stage1_u..ear_Output   |                     -401,408(-100.0%)   
------ ---------------------------------------------------------------- ------------------------ ---------------- ----------- -------------------------------- --- ------------------- ------------------- --------------- 
71     _features_stage2_u..u_output_0 (Conv2D, Conv)                    [b:1,h:56,w:56,c:16]     160/640              451,600   _features_stage1_u..ear_Output   | -432(-67.5%)                            Conv2D_[4]      
------ ---------------------------------------------------------------- ------------------------ ---------------- ----------- -------------------------------- --- ------------------- ------------------- --------------- 
72     _features_stage2_u..ear_Output (Conversion, QuantizeLinear)      [b:1,h:56,w:56,c:16]                          100,352   _features_stage2_u..u_output_0   |                     -100,352(-100.0%)   
------ ---------------------------------------------------------------- ------------------------ ---------------- ----------- -------------------------------- --- ------------------- ------------------- --------------- 
73     _features_stage2_u..ear_Output (Conversion, DequantizeLinear)    [b:1,h:56,w:56,c:16]                          100,352   _features_stage2_u..ear_Output   |                     -100,352(-100.0%)   
------ ---------------------------------------------------------------- ------------------------ ---------------- ----------- -------------------------------- --- ------------------- ------------------- --------------- 
74     _features_stage2_u..u_output_0 (Conv2D, Conv)                    [b:1,h:56,w:56,c:32]     544/2,176          1,605,664   _features_stage2_u..ear_Output   | -1,536(-70.6%)                          Conv2D_[5]      
------ ---------------------------------------------------------------- ------------------------ ---------------- ----------- -------------------------------- --- ------------------- ------------------- --------------- 
75     _features_stage2_u..ear_Output (Conversion, QuantizeLinear)      [b:1,h:56,w:56,c:32]                          200,704   _features_stage2_u..u_output_0   |                     -200,704(-100.0%)   
------ ---------------------------------------------------------------- ------------------------ ---------------- ----------- -------------------------------- --- ------------------- ------------------- --------------- 
76     _features_stage2_u..ear_Output (Conversion, DequantizeLinear)    [b:1,h:56,w:56,c:32]                          200,704   _features_stage2_u..ear_Output   |                     -200,704(-100.0%)   
------ ---------------------------------------------------------------- ------------------------ ---------------- ----------- -------------------------------- --- ------------------- ------------------- --------------- 
77     _features_stage2_u..u_output_0 (Conv2D, Conv)                    [b:1,h:56,w:56,c:32]     320/1,280            903,200   _features_stage2_u..ear_Output   | -864(-67.5%)                            Conv2D_[6]      
------ ---------------------------------------------------------------- ------------------------ ---------------- ----------- -------------------------------- --- ------------------- ------------------- --------------- 
78     _features_stage2_u..ear_Output (Conversion, QuantizeLinear)      [b:1,h:56,w:56,c:32]                          200,704   _features_stage2_u..u_output_0   |                     -200,704(-100.0%)   
------ ---------------------------------------------------------------- ------------------------ ---------------- ----------- -------------------------------- --- ------------------- ------------------- --------------- 
79     _features_stage2_u..ear_Output (Conversion, DequantizeLinear)    [b:1,h:56,w:56,c:32]                          200,704   _features_stage2_u..ear_Output   |                     -200,704(-100.0%)   
------ ---------------------------------------------------------------- ------------------------ ---------------- ----------- -------------------------------- --- ------------------- ------------------- --------------- 
80     _features_stage2_u..u_output_0 (Conv2D, Conv)                    [b:1,h:56,w:56,c:32]     1,056/4,224        3,211,296   _features_stage2_u..ear_Output   | -3,072(-72.7%)                          Conv2D_[7]      
------ ---------------------------------------------------------------- ------------------------ ---------------- ----------- -------------------------------- --- ------------------- ------------------- --------------- 
81     _features_stage2_u..ear_Output (Conversion, QuantizeLinear)      [b:1,h:56,w:56,c:32]                          200,704   _features_stage2_u..u_output_0   |                     -200,704(-100.0%)   
------ ---------------------------------------------------------------- ------------------------ ---------------- ----------- -------------------------------- --- ------------------- ------------------- --------------- 
82     _features_stage2_u..ear_Output (Conversion, DequantizeLinear)    [b:1,h:56,w:56,c:32]                          200,704   _features_stage2_u..ear_Output   |                     -200,704(-100.0%)   
------ ---------------------------------------------------------------- ------------------------ ---------------- ----------- -------------------------------- --- ------------------- ------------------- --------------- 
83     _features_stage3_u..u_output_0 (Conv2D, Conv)                    [b:1,h:28,w:28,c:32]     320/1,280            225,824   _features_stage2_u..ear_Output   | -864(-67.5%)                            Conv2D_[8]      
------ ---------------------------------------------------------------- ------------------------ ---------------- ----------- -------------------------------- --- ------------------- ------------------- --------------- 
84     _features_stage3_u..ear_Output (Conversion, QuantizeLinear)      [b:1,h:28,w:28,c:32]                           50,176   _features_stage3_u..u_output_0   |                     -50,176(-100.0%)    
------ ---------------------------------------------------------------- ------------------------ ---------------- ----------- -------------------------------- --- ------------------- ------------------- --------------- 
85     _features_stage3_u..ear_Output (Conversion, DequantizeLinear)    [b:1,h:28,w:28,c:32]                           50,176   _features_stage3_u..ear_Output   |                     -50,176(-100.0%)    
------ ---------------------------------------------------------------- ------------------------ ---------------- ----------- -------------------------------- --- ------------------- ------------------- --------------- 
86     _features_stage3_u..u_output_0 (Conv2D, Conv)                    [b:1,h:28,w:28,c:64]     2,112/8,448        1,605,696   _features_stage3_u..ear_Output   | -6,144(-72.7%)                          Conv2D_[9]      
------ ---------------------------------------------------------------- ------------------------ ---------------- ----------- -------------------------------- --- ------------------- ------------------- --------------- 
87     _features_stage3_u..ear_Output (Conversion, QuantizeLinear)      [b:1,h:28,w:28,c:64]                          100,352   _features_stage3_u..u_output_0   |                     -100,352(-100.0%)   
------ ---------------------------------------------------------------- ------------------------ ---------------- ----------- -------------------------------- --- ------------------- ------------------- --------------- 
88     _features_stage3_u..ear_Output (Conversion, DequantizeLinear)    [b:1,h:28,w:28,c:64]                          100,352   _features_stage3_u..ear_Output   |                     -100,352(-100.0%)   
------ ---------------------------------------------------------------- ------------------------ ---------------- ----------- -------------------------------- --- ------------------- ------------------- --------------- 
89     _features_stage3_u..u_output_0 (Conv2D, Conv)                    [b:1,h:28,w:28,c:64]     640/2,560            451,648   _features_stage3_u..ear_Output   | -1,728(-67.5%)                          Conv2D_[10]     
------ ---------------------------------------------------------------- ------------------------ ---------------- ----------- -------------------------------- --- ------------------- ------------------- --------------- 
90     _features_stage3_u..ear_Output (Conversion, QuantizeLinear)      [b:1,h:28,w:28,c:64]                          100,352   _features_stage3_u..u_output_0   |                     -100,352(-100.0%)   
------ ---------------------------------------------------------------- ------------------------ ---------------- ----------- -------------------------------- --- ------------------- ------------------- --------------- 
91     _features_stage3_u..ear_Output (Conversion, DequantizeLinear)    [b:1,h:28,w:28,c:64]                          100,352   _features_stage3_u..ear_Output   |                     -100,352(-100.0%)   
------ ---------------------------------------------------------------- ------------------------ ---------------- ----------- -------------------------------- --- ------------------- ------------------- --------------- 
92     _features_stage3_u..u_output_0 (Conv2D, Conv)                    [b:1,h:28,w:28,c:64]     4,160/16,640       3,211,328   _features_stage3_u..ear_Output   | -12,288(-73.8%)                         Conv2D_[11]     
------ ---------------------------------------------------------------- ------------------------ ---------------- ----------- -------------------------------- --- ------------------- ------------------- --------------- 
93     _features_stage3_u..ear_Output (Conversion, QuantizeLinear)      [b:1,h:28,w:28,c:64]                          100,352   _features_stage3_u..u_output_0   |                     -100,352(-100.0%)   
------ ---------------------------------------------------------------- ------------------------ ---------------- ----------- -------------------------------- --- ------------------- ------------------- --------------- 
94     _features_stage3_u..ear_Output (Conversion, DequantizeLinear)    [b:1,h:28,w:28,c:64]                          100,352   _features_stage3_u..ear_Output   |                     -100,352(-100.0%)   
------ ---------------------------------------------------------------- ------------------------ ---------------- ----------- -------------------------------- --- ------------------- ------------------- --------------- 
95     _features_stage4_u..u_output_0 (Conv2D, Conv)                    [b:1,h:14,w:14,c:64]     640/2,560            112,960   _features_stage3_u..ear_Output   | -1,728(-67.5%)                          Conv2D_[12]     
------ ---------------------------------------------------------------- ------------------------ ---------------- ----------- -------------------------------- --- ------------------- ------------------- --------------- 
96     _features_stage4_u..ear_Output (Conversion, QuantizeLinear)      [b:1,h:14,w:14,c:64]                           25,088   _features_stage4_u..u_output_0   |                     -25,088(-100.0%)    
------ ---------------------------------------------------------------- ------------------------ ---------------- ----------- -------------------------------- --- ------------------- ------------------- --------------- 
97     _features_stage4_u..ear_Output (Conversion, DequantizeLinear)    [b:1,h:14,w:14,c:64]                           25,088   _features_stage4_u..ear_Output   |                     -25,088(-100.0%)    
------ ---------------------------------------------------------------- ------------------------ ---------------- ----------- -------------------------------- --- ------------------- ------------------- --------------- 
98     _features_stage4_u..u_output_0 (Conv2D, Conv)                    [b:1,h:14,w:14,c:128]    8,320/33,280       1,605,760   _features_stage4_u..ear_Output   | -24,576(-73.8%)                         Conv2D_[13]     
------ ---------------------------------------------------------------- ------------------------ ---------------- ----------- -------------------------------- --- ------------------- ------------------- --------------- 
99     _features_stage4_u..ear_Output (Conversion, QuantizeLinear)      [b:1,h:14,w:14,c:128]                          50,176   _features_stage4_u..u_output_0   |                     -50,176(-100.0%)    
------ ---------------------------------------------------------------- ------------------------ ---------------- ----------- -------------------------------- --- ------------------- ------------------- --------------- 
100    _features_stage4_u..ear_Output (Conversion, DequantizeLinear)    [b:1,h:14,w:14,c:128]                          50,176   _features_stage4_u..ear_Output   |                     -50,176(-100.0%)    
------ ---------------------------------------------------------------- ------------------------ ---------------- ----------- -------------------------------- --- ------------------- ------------------- --------------- 
101    _features_stage4_u..u_output_0 (Conv2D, Conv)                    [b:1,h:14,w:14,c:128]    1,280/5,120          225,920   _features_stage4_u..ear_Output   | -3,456(-67.5%)                          Conv2D_[14]     
------ ---------------------------------------------------------------- ------------------------ ---------------- ----------- -------------------------------- --- ------------------- ------------------- --------------- 
102    _features_stage4_u..ear_Output (Conversion, QuantizeLinear)      [b:1,h:14,w:14,c:128]                          50,176   _features_stage4_u..u_output_0   |                     -50,176(-100.0%)    
------ ---------------------------------------------------------------- ------------------------ ---------------- ----------- -------------------------------- --- ------------------- ------------------- --------------- 
103    _features_stage4_u..ear_Output (Conversion, DequantizeLinear)    [b:1,h:14,w:14,c:128]                          50,176   _features_stage4_u..ear_Output   |                     -50,176(-100.0%)    
------ ---------------------------------------------------------------- ------------------------ ---------------- ----------- -------------------------------- --- ------------------- ------------------- --------------- 
104    _features_stage4_u..u_output_0 (Conv2D, Conv)                    [b:1,h:14,w:14,c:128]    16,512/66,048      3,211,392   _features_stage4_u..ear_Output   | -49,152(-74.4%)                         Conv2D_[15]     
------ ---------------------------------------------------------------- ------------------------ ---------------- ----------- -------------------------------- --- ------------------- ------------------- --------------- 
105    _features_stage4_u..ear_Output (Conversion, QuantizeLinear)      [b:1,h:14,w:14,c:128]                          50,176   _features_stage4_u..u_output_0   |                     -50,176(-100.0%)    
------ ---------------------------------------------------------------- ------------------------ ---------------- ----------- -------------------------------- --- ------------------- ------------------- --------------- 
106    _features_stage4_u..ear_Output (Conversion, DequantizeLinear)    [b:1,h:14,w:14,c:128]                          50,176   _features_stage4_u..ear_Output   |                     -50,176(-100.0%)    
------ ---------------------------------------------------------------- ------------------------ ---------------- ----------- -------------------------------- --- ------------------- ------------------- --------------- 
107    _features_stage4_u..u_output_0 (Conv2D, Conv)                    [b:1,h:14,w:14,c:128]    1,280/5,120          225,920   _features_stage4_u..ear_Output   | -3,456(-67.5%)                          Conv2D_[16]     
------ ---------------------------------------------------------------- ------------------------ ---------------- ----------- -------------------------------- --- ------------------- ------------------- --------------- 
108    _features_stage4_u..ear_Output (Conversion, QuantizeLinear)      [b:1,h:14,w:14,c:128]                          50,176   _features_stage4_u..u_output_0   |                     -50,176(-100.0%)    
------ ---------------------------------------------------------------- ------------------------ ---------------- ----------- -------------------------------- --- ------------------- ------------------- --------------- 
109    _features_stage4_u..ear_Output (Conversion, DequantizeLinear)    [b:1,h:14,w:14,c:128]                          50,176   _features_stage4_u..ear_Output   |                     -50,176(-100.0%)    
------ ---------------------------------------------------------------- ------------------------ ---------------- ----------- -------------------------------- --- ------------------- ------------------- --------------- 
110    _features_stage4_u..u_output_0 (Conv2D, Conv)                    [b:1,h:14,w:14,c:128]    16,512/66,048      3,211,392   _features_stage4_u..ear_Output   | -49,152(-74.4%)                         Conv2D_[17]     
------ ---------------------------------------------------------------- ------------------------ ---------------- ----------- -------------------------------- --- ------------------- ------------------- --------------- 
111    _features_stage4_u..ear_Output (Conversion, QuantizeLinear)      [b:1,h:14,w:14,c:128]                          50,176   _features_stage4_u..u_output_0   |                     -50,176(-100.0%)    
------ ---------------------------------------------------------------- ------------------------ ---------------- ----------- -------------------------------- --- ------------------- ------------------- --------------- 
112    _features_stage4_u..ear_Output (Conversion, DequantizeLinear)    [b:1,h:14,w:14,c:128]                          50,176   _features_stage4_u..ear_Output   |                     -50,176(-100.0%)    
------ ---------------------------------------------------------------- ------------------------ ---------------- ----------- -------------------------------- --- ------------------- ------------------- --------------- 
113    _features_stage4_u..u_output_0 (Conv2D, Conv)                    [b:1,h:14,w:14,c:128]    1,280/5,120          225,920   _features_stage4_u..ear_Output   | -3,456(-67.5%)                          Conv2D_[18]     
------ ---------------------------------------------------------------- ------------------------ ---------------- ----------- -------------------------------- --- ------------------- ------------------- --------------- 
114    _features_stage4_u..ear_Output (Conversion, QuantizeLinear)      [b:1,h:14,w:14,c:128]                          50,176   _features_stage4_u..u_output_0   |                     -50,176(-100.0%)    
------ ---------------------------------------------------------------- ------------------------ ---------------- ----------- -------------------------------- --- ------------------- ------------------- --------------- 
115    _features_stage4_u..ear_Output (Conversion, DequantizeLinear)    [b:1,h:14,w:14,c:128]                          50,176   _features_stage4_u..ear_Output   |                     -50,176(-100.0%)    
------ ---------------------------------------------------------------- ------------------------ ---------------- ----------- -------------------------------- --- ------------------- ------------------- --------------- 
116    _features_stage4_u..u_output_0 (Conv2D, Conv)                    [b:1,h:14,w:14,c:128]    16,512/66,048      3,211,392   _features_stage4_u..ear_Output   | -49,152(-74.4%)                         Conv2D_[19]     
------ ---------------------------------------------------------------- ------------------------ ---------------- ----------- -------------------------------- --- ------------------- ------------------- --------------- 
117    _features_stage4_u..ear_Output (Conversion, QuantizeLinear)      [b:1,h:14,w:14,c:128]                          50,176   _features_stage4_u..u_output_0   |                     -50,176(-100.0%)    
------ ---------------------------------------------------------------- ------------------------ ---------------- ----------- -------------------------------- --- ------------------- ------------------- --------------- 
118    _features_stage4_u..ear_Output (Conversion, DequantizeLinear)    [b:1,h:14,w:14,c:128]                          50,176   _features_stage4_u..ear_Output   |                     -50,176(-100.0%)    
------ ---------------------------------------------------------------- ------------------------ ---------------- ----------- -------------------------------- --- ------------------- ------------------- --------------- 
119    _features_stage4_u..u_output_0 (Conv2D, Conv)                    [b:1,h:14,w:14,c:128]    1,280/5,120          225,920   _features_stage4_u..ear_Output   | -3,456(-67.5%)                          Conv2D_[20]     
------ ---------------------------------------------------------------- ------------------------ ---------------- ----------- -------------------------------- --- ------------------- ------------------- --------------- 
120    _features_stage4_u..ear_Output (Conversion, QuantizeLinear)      [b:1,h:14,w:14,c:128]                          50,176   _features_stage4_u..u_output_0   |                     -50,176(-100.0%)    
------ ---------------------------------------------------------------- ------------------------ ---------------- ----------- -------------------------------- --- ------------------- ------------------- --------------- 
121    _features_stage4_u..ear_Output (Conversion, DequantizeLinear)    [b:1,h:14,w:14,c:128]                          50,176   _features_stage4_u..ear_Output   |                     -50,176(-100.0%)    
------ ---------------------------------------------------------------- ------------------------ ---------------- ----------- -------------------------------- --- ------------------- ------------------- --------------- 
122    _features_stage4_u..u_output_0 (Conv2D, Conv)                    [b:1,h:14,w:14,c:128]    16,512/66,048      3,211,392   _features_stage4_u..ear_Output   | -49,152(-74.4%)                         Conv2D_[21]     
------ ---------------------------------------------------------------- ------------------------ ---------------- ----------- -------------------------------- --- ------------------- ------------------- --------------- 
123    _features_stage4_u..ear_Output (Conversion, QuantizeLinear)      [b:1,h:14,w:14,c:128]                          50,176   _features_stage4_u..u_output_0   |                     -50,176(-100.0%)    
------ ---------------------------------------------------------------- ------------------------ ---------------- ----------- -------------------------------- --- ------------------- ------------------- --------------- 
124    _features_stage4_u..ear_Output (Conversion, DequantizeLinear)    [b:1,h:14,w:14,c:128]                          50,176   _features_stage4_u..ear_Output   |                     -50,176(-100.0%)    
------ ---------------------------------------------------------------- ------------------------ ---------------- ----------- -------------------------------- --- ------------------- ------------------- --------------- 
125    _features_stage4_u..u_output_0 (Conv2D, Conv)                    [b:1,h:14,w:14,c:128]    1,280/5,120          225,920   _features_stage4_u..ear_Output   | -3,456(-67.5%)                          Conv2D_[22]     
------ ---------------------------------------------------------------- ------------------------ ---------------- ----------- -------------------------------- --- ------------------- ------------------- --------------- 
126    _features_stage4_u..ear_Output (Conversion, QuantizeLinear)      [b:1,h:14,w:14,c:128]                          50,176   _features_stage4_u..u_output_0   |                     -50,176(-100.0%)    
------ ---------------------------------------------------------------- ------------------------ ---------------- ----------- -------------------------------- --- ------------------- ------------------- --------------- 
127    _features_stage4_u..ear_Output (Conversion, DequantizeLinear)    [b:1,h:14,w:14,c:128]                          50,176   _features_stage4_u..ear_Output   |                     -50,176(-100.0%)    
------ ---------------------------------------------------------------- ------------------------ ---------------- ----------- -------------------------------- --- ------------------- ------------------- --------------- 
128    _features_stage4_u..u_output_0 (Conv2D, Conv)                    [b:1,h:14,w:14,c:128]    16,512/66,048      3,211,392   _features_stage4_u..ear_Output   | -49,152(-74.4%)                         Conv2D_[23]     
------ ---------------------------------------------------------------- ------------------------ ---------------- ----------- -------------------------------- --- ------------------- ------------------- --------------- 
129    _features_stage4_u..ear_Output (Conversion, QuantizeLinear)      [b:1,h:14,w:14,c:128]                          50,176   _features_stage4_u..u_output_0   |                     -50,176(-100.0%)    
------ ---------------------------------------------------------------- ------------------------ ---------------- ----------- -------------------------------- --- ------------------- ------------------- --------------- 
130    _features_stage4_u..ear_Output (Conversion, DequantizeLinear)    [b:1,h:14,w:14,c:128]                          50,176   _features_stage4_u..ear_Output   |                     -50,176(-100.0%)    
------ ---------------------------------------------------------------- ------------------------ ---------------- ----------- -------------------------------- --- ------------------- ------------------- --------------- 
131    _features_stage5_u..u_output_0 (Conv2D, Conv)                    [b:1,h:7,w:7,c:128]      1,280/5,120           56,576   _features_stage4_u..ear_Output   | -3,456(-67.5%)                          Conv2D_[24]     
------ ---------------------------------------------------------------- ------------------------ ---------------- ----------- -------------------------------- --- ------------------- ------------------- --------------- 
132    _features_stage5_u..ear_Output (Conversion, QuantizeLinear)      [b:1,h:7,w:7,c:128]                            12,544   _features_stage5_u..u_output_0   |                     -12,544(-100.0%)    
------ ---------------------------------------------------------------- ------------------------ ---------------- ----------- -------------------------------- --- ------------------- ------------------- --------------- 
133    _features_stage5_u..ear_Output (Conversion, DequantizeLinear)    [b:1,h:7,w:7,c:128]                            12,544   _features_stage5_u..ear_Output   |                     -12,544(-100.0%)    
------ ---------------------------------------------------------------- ------------------------ ---------------- ----------- -------------------------------- --- ------------------- ------------------- --------------- 
134    _features_stage5_u..u_output_0 (Conv2D, Conv)                    [b:1,h:7,w:7,c:256]      33,024/132,096     1,605,888   _features_stage5_u..ear_Output   | -98,304(-74.4%)                         Conv2D_[25]     
------ ---------------------------------------------------------------- ------------------------ ---------------- ----------- -------------------------------- --- ------------------- ------------------- --------------- 
135    _features_stage5_u..ear_Output (Conversion, QuantizeLinear)      [b:1,h:7,w:7,c:256]                            25,088   _features_stage5_u..u_output_0   |                     -25,088(-100.0%)    
------ ---------------------------------------------------------------- ------------------------ ---------------- ----------- -------------------------------- --- ------------------- ------------------- --------------- 
136    _features_stage5_u..ear_Output (Conversion, DequantizeLinear)    [b:1,h:7,w:7,c:256]                            25,088   _features_stage5_u..ear_Output   |                     -25,088(-100.0%)    
------ ---------------------------------------------------------------- ------------------------ ---------------- ----------- -------------------------------- --- ------------------- ------------------- --------------- 
137    _features_stage5_u..u_output_0 (Conv2D, Conv)                    [b:1,h:7,w:7,c:256]      2,560/10,240         113,152   _features_stage5_u..ear_Output   | -6,912(-67.5%)                          Conv2D_[26]     
------ ---------------------------------------------------------------- ------------------------ ---------------- ----------- -------------------------------- --- ------------------- ------------------- --------------- 
138    _features_stage5_u..ear_Output (Conversion, QuantizeLinear)      [b:1,h:7,w:7,c:256]                            25,088   _features_stage5_u..u_output_0   |                     -25,088(-100.0%)    
------ ---------------------------------------------------------------- ------------------------ ---------------- ----------- -------------------------------- --- ------------------- ------------------- --------------- 
139    _features_stage5_u..ear_Output (Conversion, DequantizeLinear)    [b:1,h:7,w:7,c:256]                            25,088   _features_stage5_u..ear_Output   |                     -25,088(-100.0%)    
------ ---------------------------------------------------------------- ------------------------ ---------------- ----------- -------------------------------- --- ------------------- ------------------- --------------- 
140    _features_stage5_u..u_output_0 (Conv2D, Conv)                    [b:1,h:7,w:7,c:256]      65,792/263,168     3,211,520   _features_stage5_u..ear_Output   | -196,608(-74.7%)                        Conv2D_[27]     
------ ---------------------------------------------------------------- ------------------------ ---------------- ----------- -------------------------------- --- ------------------- ------------------- --------------- 
141    _features_stage5_u..ear_Output (Conversion, QuantizeLinear)      [b:1,h:7,w:7,c:256]                            25,088   _features_stage5_u..u_output_0   |                     -25,088(-100.0%)    
------ ---------------------------------------------------------------- ------------------------ ---------------- ----------- -------------------------------- --- ------------------- ------------------- --------------- 
142    _features_stage5_u..ear_Output (Conversion, DequantizeLinear)    [b:1,h:7,w:7,c:256]                            25,088   _features_stage5_u..ear_Output   |                     -25,088(-100.0%)    
------ ---------------------------------------------------------------- ------------------------ ---------------- ----------- -------------------------------- --- ------------------- ------------------- --------------- 
143    _features_final_po..l_output_0 (Pool, AveragePool)               [b:1,h:1,w:1,c:256]                            12,544   _features_stage5_u..ear_Output   |                                         Pool_[28]       
------ ---------------------------------------------------------------- ------------------------ ---------------- ----------- -------------------------------- --- ------------------- ------------------- --------------- 
144    _features_final_po..ear_Output (Conversion, QuantizeLinear)      [b:1,h:1,w:1,c:256]                               512   _features_final_po..l_output_0   |                     -512(-100.0%)       
------ ---------------------------------------------------------------- ------------------------ ---------------- ----------- -------------------------------- --- ------------------- ------------------- --------------- 
145    _features_final_po..ear_Output (Conversion, DequantizeLinear)    [b:1,h:1,w:1,c:256]                               512   _features_final_po..ear_Output   |                     -512(-100.0%)       
------ ---------------------------------------------------------------- ------------------------ ---------------- ----------- -------------------------------- --- ------------------- ------------------- --------------- 
150    _Reshape_output_0 (Reshape, Reshape)                             [b:1,c:256]                                             _features_final_po..ear_Output   |                                         
------ ---------------------------------------------------------------- ------------------------ ---------------- ----------- -------------------------------- --- ------------------- ------------------- --------------- 
151    _Reshape_output_0_..ear_Output (Conversion, QuantizeLinear)      [b:1,c:256]                                       512                _Reshape_output_0   |                     -512(-100.0%)       
------ ---------------------------------------------------------------- ------------------------ ---------------- ----------- -------------------------------- --- ------------------- ------------------- --------------- 
152    _Reshape_output_0_..ear_Output (Conversion, DequantizeLinear)    [b:1,c:256]                                       512   _Reshape_output_0_..ear_Output   |                     -512(-100.0%)       
------ ---------------------------------------------------------------- ------------------------ ---------------- ----------- -------------------------------- --- ------------------- ------------------- --------------- 
153    output_QuantizeLinear_Input (Gemm, Gemm)                         [b:1,c:100]                                    25,700   _Reshape_output_0_..ear_Output   | +26,000(+100.0%)                        Dense_[o][29]   
                                                                                                                                output_weight_Dequ..tput_const   | 
                                                                                                                                             output_bias_const   | 
------ ---------------------------------------------------------------- ------------------------ ---------------- ----------- -------------------------------- --- ------------------- ------------------- --------------- 
154    output_QuantizeLinear_Output (Conversion, QuantizeLinear)        [b:1,c:100]                                       200      output_QuantizeLinear_Input   |                     -200(-100.0%)       
------ ---------------------------------------------------------------- ------------------------ ---------------- ----------- -------------------------------- --- ------------------- ------------------- --------------- 
155    output (Conversion, DequantizeLinear)                            [b:1,c:100]                                       200     output_QuantizeLinear_Output   |                     -200(-100.0%)       
------ ---------------------------------------------------------------- ------------------------ ---------------- ----------- -------------------------------- --- ------------------- ------------------- --------------- 
model/c-model: macc=46,462,500/40,890,516 -5,571,984(-12.0%) weights=944,144/244,544 -699,600(-74.1%) activations=--/301,060 io=--/0



Generated C-graph summary
------------------------------------------------------------------------------------------------------------------------
model name            : mobilenet_a025_pt_int8
c-name                : quantized_a025_pt_36porciento
c-node #              : 30
c-array #             : 115
activations size      : 301060 (1 segment)
weights size          : 244544 (1 segment)
macc                  : 40890516
inputs                : ['input_output']
outputs               : ['output_QuantizeLinear_Input_output']

C-Arrays (115)
------ ------------------------------------------------------------- --------------- ------------------------- ----------- --------- 
c_id   name (*_array)                                                item/size       domain/mem-pool           c-type      comment   
------ ------------------------------------------------------------- --------------- ------------------------- ----------- --------- 
0      _features_final_pool_AveragePool_output_0_output              256/256         activations/**default**   s8                    
1      _features_init_block_activ_Relu_output_0_bias                 8/32            weights/weights           const s32             
2      _features_init_block_activ_Relu_output_0_output               100352/100352   activations/**default**   s8                    
3      _features_init_block_activ_Relu_output_0_scratch0             572/572         activations/**default**   s8                    
4      _features_init_block_activ_Relu_output_0_weights              216/216         weights/weights           const s8              
5      _features_stage1_unit1_dw_conv_activ_Relu_output_0_bias       8/32            weights/weights           const s32             
6      _features_stage1_unit1_dw_conv_activ_Relu_output_0_output     100352/100352   activations/**default**   s8                    
7      _features_stage1_unit1_dw_conv_activ_Relu_output_0_scratch0   217/217         activations/**default**   s8                    
8      _features_stage1_unit1_dw_conv_activ_Relu_output_0_weights    72/72           weights/weights           const s8              
9      _features_stage1_unit1_pw_conv_activ_Relu_output_0_bias       16/64           weights/weights           const s32             
10     _features_stage1_unit1_pw_conv_activ_Relu_output_0_output     200704/200704   activations/**default**   s8                    
11     _features_stage1_unit1_pw_conv_activ_Relu_output_0_scratch0   32/32           activations/**default**   s8                    
12     _features_stage1_unit1_pw_conv_activ_Relu_output_0_weights    128/128         weights/weights           const s8              
13     _features_stage2_unit1_dw_conv_activ_Relu_output_0_bias       16/64           weights/weights           const s32             
14     _features_stage2_unit1_dw_conv_activ_Relu_output_0_output     50176/50176     activations/**default**   s8                    
15     _features_stage2_unit1_dw_conv_activ_Relu_output_0_scratch0   433/433         activations/**default**   s8                    
16     _features_stage2_unit1_dw_conv_activ_Relu_output_0_weights    144/144         weights/weights           const s8              
17     _features_stage2_unit1_pw_conv_activ_Relu_output_0_bias       32/128          weights/weights           const s32             
18     _features_stage2_unit1_pw_conv_activ_Relu_output_0_output     100352/100352   activations/**default**   s8                    
19     _features_stage2_unit1_pw_conv_activ_Relu_output_0_scratch0   64/64           activations/**default**   s8                    
20     _features_stage2_unit1_pw_conv_activ_Relu_output_0_weights    512/512         weights/weights           const s8              
21     _features_stage2_unit2_dw_conv_activ_Relu_output_0_bias       32/128          weights/weights           const s32             
22     _features_stage2_unit2_dw_conv_activ_Relu_output_0_output     100352/100352   activations/**default**   s8                    
23     _features_stage2_unit2_dw_conv_activ_Relu_output_0_scratch0   865/865         activations/**default**   s8                    
24     _features_stage2_unit2_dw_conv_activ_Relu_output_0_weights    288/288         weights/weights           const s8              
25     _features_stage2_unit2_pw_conv_activ_Relu_output_0_bias       32/128          weights/weights           const s32             
26     _features_stage2_unit2_pw_conv_activ_Relu_output_0_output     100352/100352   activations/**default**   s8                    
27     _features_stage2_unit2_pw_conv_activ_Relu_output_0_scratch0   128/128         activations/**default**   s8                    
28     _features_stage2_unit2_pw_conv_activ_Relu_output_0_weights    1024/1024       weights/weights           const s8              
29     _features_stage3_unit1_dw_conv_activ_Relu_output_0_bias       32/128          weights/weights           const s32             
30     _features_stage3_unit1_dw_conv_activ_Relu_output_0_output     25088/25088     activations/**default**   s8                    
31     _features_stage3_unit1_dw_conv_activ_Relu_output_0_scratch0   865/865         activations/**default**   s8                    
32     _features_stage3_unit1_dw_conv_activ_Relu_output_0_weights    288/288         weights/weights           const s8              
33     _features_stage3_unit1_pw_conv_activ_Relu_output_0_bias       64/256          weights/weights           const s32             
34     _features_stage3_unit1_pw_conv_activ_Relu_output_0_output     50176/50176     activations/**default**   s8                    
35     _features_stage3_unit1_pw_conv_activ_Relu_output_0_scratch0   128/128         activations/**default**   s8                    
36     _features_stage3_unit1_pw_conv_activ_Relu_output_0_weights    2048/2048       weights/weights           const s8              
37     _features_stage3_unit2_dw_conv_activ_Relu_output_0_bias       64/256          weights/weights           const s32             
38     _features_stage3_unit2_dw_conv_activ_Relu_output_0_output     50176/50176     activations/**default**   s8                    
39     _features_stage3_unit2_dw_conv_activ_Relu_output_0_scratch0   1729/1729       activations/**default**   s8                    
40     _features_stage3_unit2_dw_conv_activ_Relu_output_0_weights    576/576         weights/weights           const s8              
41     _features_stage3_unit2_pw_conv_activ_Relu_output_0_bias       64/256          weights/weights           const s32             
42     _features_stage3_unit2_pw_conv_activ_Relu_output_0_output     50176/50176     activations/**default**   s8                    
43     _features_stage3_unit2_pw_conv_activ_Relu_output_0_scratch0   256/256         activations/**default**   s8                    
44     _features_stage3_unit2_pw_conv_activ_Relu_output_0_weights    4096/4096       weights/weights           const s8              
45     _features_stage4_unit1_dw_conv_activ_Relu_output_0_bias       64/256          weights/weights           const s32             
46     _features_stage4_unit1_dw_conv_activ_Relu_output_0_output     12544/12544     activations/**default**   s8                    
47     _features_stage4_unit1_dw_conv_activ_Relu_output_0_scratch0   1729/1729       activations/**default**   s8                    
48     _features_stage4_unit1_dw_conv_activ_Relu_output_0_weights    576/576         weights/weights           const s8              
49     _features_stage4_unit1_pw_conv_activ_Relu_output_0_bias       128/512         weights/weights           const s32             
50     _features_stage4_unit1_pw_conv_activ_Relu_output_0_output     25088/25088     activations/**default**   s8                    
51     _features_stage4_unit1_pw_conv_activ_Relu_output_0_scratch0   256/256         activations/**default**   s8                    
52     _features_stage4_unit1_pw_conv_activ_Relu_output_0_weights    8192/8192       weights/weights           const s8              
53     _features_stage4_unit2_dw_conv_activ_Relu_output_0_bias       128/512         weights/weights           const s32             
54     _features_stage4_unit2_dw_conv_activ_Relu_output_0_output     25088/25088     activations/**default**   s8                    
55     _features_stage4_unit2_dw_conv_activ_Relu_output_0_scratch0   3457/3457       activations/**default**   s8                    
56     _features_stage4_unit2_dw_conv_activ_Relu_output_0_weights    1152/1152       weights/weights           const s8              
57     _features_stage4_unit2_pw_conv_activ_Relu_output_0_bias       128/512         weights/weights           const s32             
58     _features_stage4_unit2_pw_conv_activ_Relu_output_0_output     25088/25088     activations/**default**   s8                    
59     _features_stage4_unit2_pw_conv_activ_Relu_output_0_scratch0   512/512         activations/**default**   s8                    
60     _features_stage4_unit2_pw_conv_activ_Relu_output_0_weights    16384/16384     weights/weights           const s8              
61     _features_stage4_unit3_dw_conv_activ_Relu_output_0_bias       128/512         weights/weights           const s32             
62     _features_stage4_unit3_dw_conv_activ_Relu_output_0_output     25088/25088     activations/**default**   s8                    
63     _features_stage4_unit3_dw_conv_activ_Relu_output_0_scratch0   3457/3457       activations/**default**   s8                    
64     _features_stage4_unit3_dw_conv_activ_Relu_output_0_weights    1152/1152       weights/weights           const s8              
65     _features_stage4_unit3_pw_conv_activ_Relu_output_0_bias       128/512         weights/weights           const s32             
66     _features_stage4_unit3_pw_conv_activ_Relu_output_0_output     25088/25088     activations/**default**   s8                    
67     _features_stage4_unit3_pw_conv_activ_Relu_output_0_scratch0   512/512         activations/**default**   s8                    
68     _features_stage4_unit3_pw_conv_activ_Relu_output_0_weights    16384/16384     weights/weights           const s8              
69     _features_stage4_unit4_dw_conv_activ_Relu_output_0_bias       128/512         weights/weights           const s32             
70     _features_stage4_unit4_dw_conv_activ_Relu_output_0_output     25088/25088     activations/**default**   s8                    
71     _features_stage4_unit4_dw_conv_activ_Relu_output_0_scratch0   3457/3457       activations/**default**   s8                    
72     _features_stage4_unit4_dw_conv_activ_Relu_output_0_weights    1152/1152       weights/weights           const s8              
73     _features_stage4_unit4_pw_conv_activ_Relu_output_0_bias       128/512         weights/weights           const s32             
74     _features_stage4_unit4_pw_conv_activ_Relu_output_0_output     25088/25088     activations/**default**   s8                    
75     _features_stage4_unit4_pw_conv_activ_Relu_output_0_scratch0   512/512         activations/**default**   s8                    
76     _features_stage4_unit4_pw_conv_activ_Relu_output_0_weights    16384/16384     weights/weights           const s8              
77     _features_stage4_unit5_dw_conv_activ_Relu_output_0_bias       128/512         weights/weights           const s32             
78     _features_stage4_unit5_dw_conv_activ_Relu_output_0_output     25088/25088     activations/**default**   s8                    
79     _features_stage4_unit5_dw_conv_activ_Relu_output_0_scratch0   3457/3457       activations/**default**   s8                    
80     _features_stage4_unit5_dw_conv_activ_Relu_output_0_weights    1152/1152       weights/weights           const s8              
81     _features_stage4_unit5_pw_conv_activ_Relu_output_0_bias       128/512         weights/weights           const s32             
82     _features_stage4_unit5_pw_conv_activ_Relu_output_0_output     25088/25088     activations/**default**   s8                    
83     _features_stage4_unit5_pw_conv_activ_Relu_output_0_scratch0   512/512         activations/**default**   s8                    
84     _features_stage4_unit5_pw_conv_activ_Relu_output_0_weights    16384/16384     weights/weights           const s8              
85     _features_stage4_unit6_dw_conv_activ_Relu_output_0_bias       128/512         weights/weights           const s32             
86     _features_stage4_unit6_dw_conv_activ_Relu_output_0_output     25088/25088     activations/**default**   s8                    
87     _features_stage4_unit6_dw_conv_activ_Relu_output_0_scratch0   3457/3457       activations/**default**   s8                    
88     _features_stage4_unit6_dw_conv_activ_Relu_output_0_weights    1152/1152       weights/weights           const s8              
89     _features_stage4_unit6_pw_conv_activ_Relu_output_0_bias       128/512         weights/weights           const s32             
90     _features_stage4_unit6_pw_conv_activ_Relu_output_0_output     25088/25088     activations/**default**   s8                    
91     _features_stage4_unit6_pw_conv_activ_Relu_output_0_scratch0   512/512         activations/**default**   s8                    
92     _features_stage4_unit6_pw_conv_activ_Relu_output_0_weights    16384/16384     weights/weights           const s8              
93     _features_stage5_unit1_dw_conv_activ_Relu_output_0_bias       128/512         weights/weights           const s32             
94     _features_stage5_unit1_dw_conv_activ_Relu_output_0_output     6272/6272       activations/**default**   s8                    
95     _features_stage5_unit1_dw_conv_activ_Relu_output_0_scratch0   3457/3457       activations/**default**   s8                    
96     _features_stage5_unit1_dw_conv_activ_Relu_output_0_weights    1152/1152       weights/weights           const s8              
97     _features_stage5_unit1_pw_conv_activ_Relu_output_0_bias       256/1024        weights/weights           const s32             
98     _features_stage5_unit1_pw_conv_activ_Relu_output_0_output     12544/12544     activations/**default**   s8                    
99     _features_stage5_unit1_pw_conv_activ_Relu_output_0_scratch0   512/512         activations/**default**   s8                    
100    _features_stage5_unit1_pw_conv_activ_Relu_output_0_weights    32768/32768     weights/weights           const s8              
101    _features_stage5_unit2_dw_conv_activ_Relu_output_0_bias       256/1024        weights/weights           const s32             
102    _features_stage5_unit2_dw_conv_activ_Relu_output_0_output     12544/12544     activations/**default**   s8                    
103    _features_stage5_unit2_dw_conv_activ_Relu_output_0_scratch0   6913/6913       activations/**default**   s8                    
104    _features_stage5_unit2_dw_conv_activ_Relu_output_0_weights    2304/2304       weights/weights           const s8              
105    _features_stage5_unit2_pw_conv_activ_Relu_output_0_bias       256/1024        weights/weights           const s32             
106    _features_stage5_unit2_pw_conv_activ_Relu_output_0_output     12544/12544     activations/**default**   s8                    
107    _features_stage5_unit2_pw_conv_activ_Relu_output_0_scratch0   1024/1024       activations/**default**   s8                    
108    _features_stage5_unit2_pw_conv_activ_Relu_output_0_weights    65536/65536     weights/weights           const s8              
109    input_Transpose_output                                        150528/150529   activations/**default**   s8                    
110    input_output                                                  150528/150528   activations/**default**   s8          /input    
111    output_QuantizeLinear_Input_bias                              100/400         weights/weights           const s32             
112    output_QuantizeLinear_Input_output                            100/100         activations/**default**   s8          /output   
113    output_QuantizeLinear_Input_scratch0                          256/512         activations/**default**   s16                   
114    output_QuantizeLinear_Input_weights                           25600/25600     weights/weights           const s8              
------ ------------------------------------------------------------- --------------- ------------------------- ----------- --------- 

C-Layers (30)
------ ---------------------------------------------------- ----- ------------ --------- ------- ---------------------------------------------------------------- ------------------------- 
c_id   name (*_layer)                                       id    layer_type   macc      rom     tensors                                                          shape (array id)          
------ ---------------------------------------------------- ----- ------------ --------- ------- ---------------------------------------------------------------- ------------------------- 
0      input_Transpose                                      2     Transpose    75264     0       I: input_output                                                  int8(1x3x224x224) (110)   
                                                                                                 O: input_Transpose_output                                        int8(1x224x224x3) (109)   
------ ---------------------------------------------------- ----- ------------ --------- ------- ---------------------------------------------------------------- ------------------------- 
1      _features_init_block_activ_Relu_output_0             62    Conv2D       2709512   248     I: input_Transpose_output                                        int8(1x224x224x3) (109)   
                                                                                                 S: _features_init_block_activ_Relu_output_0_scratch0                                       
                                                                                                 W: _features_init_block_activ_Relu_output_0_weights              int8(8x3x3x3) (4)         
                                                                                                 W: _features_init_block_activ_Relu_output_0_bias                 int32(8) (1)              
                                                                                                 O: _features_init_block_activ_Relu_output_0_output               int8(1x112x112x8) (2)     
------ ---------------------------------------------------- ----- ------------ --------- ------- ---------------------------------------------------------------- ------------------------- 
2      _features_stage1_unit1_dw_conv_activ_Relu_output_0   65    Conv2D       903176    104     I: _features_init_block_activ_Relu_output_0_output               int8(1x112x112x8) (2)     
                                                                                                 S: _features_stage1_unit1_dw_conv_activ_Relu_output_0_scratch0                             
                                                                                                 W: _features_stage1_unit1_dw_conv_activ_Relu_output_0_weights    int8(1x3x3x8) (8)         
                                                                                                 W: _features_stage1_unit1_dw_conv_activ_Relu_output_0_bias       int32(8) (5)              
                                                                                                 O: _features_stage1_unit1_dw_conv_activ_Relu_output_0_output     int8(1x112x112x8) (6)     
------ ---------------------------------------------------- ----- ------------ --------- ------- ---------------------------------------------------------------- ------------------------- 
3      _features_stage1_unit1_pw_conv_activ_Relu_output_0   68    Conv2D       1605648   192     I: _features_stage1_unit1_dw_conv_activ_Relu_output_0_output     int8(1x112x112x8) (6)     
                                                                                                 S: _features_stage1_unit1_pw_conv_activ_Relu_output_0_scratch0                             
                                                                                                 W: _features_stage1_unit1_pw_conv_activ_Relu_output_0_weights    int8(16x1x1x8) (12)       
                                                                                                 W: _features_stage1_unit1_pw_conv_activ_Relu_output_0_bias       int32(16) (9)             
                                                                                                 O: _features_stage1_unit1_pw_conv_activ_Relu_output_0_output     int8(1x112x112x16) (10)   
------ ---------------------------------------------------- ----- ------------ --------- ------- ---------------------------------------------------------------- ------------------------- 
4      _features_stage2_unit1_dw_conv_activ_Relu_output_0   71    Conv2D       451600    208     I: _features_stage1_unit1_pw_conv_activ_Relu_output_0_output     int8(1x112x112x16) (10)   
                                                                                                 S: _features_stage2_unit1_dw_conv_activ_Relu_output_0_scratch0                             
                                                                                                 W: _features_stage2_unit1_dw_conv_activ_Relu_output_0_weights    int8(1x3x3x16) (16)       
                                                                                                 W: _features_stage2_unit1_dw_conv_activ_Relu_output_0_bias       int32(16) (13)            
                                                                                                 O: _features_stage2_unit1_dw_conv_activ_Relu_output_0_output     int8(1x56x56x16) (14)     
------ ---------------------------------------------------- ----- ------------ --------- ------- ---------------------------------------------------------------- ------------------------- 
5      _features_stage2_unit1_pw_conv_activ_Relu_output_0   74    Conv2D       1605664   640     I: _features_stage2_unit1_dw_conv_activ_Relu_output_0_output     int8(1x56x56x16) (14)     
                                                                                                 S: _features_stage2_unit1_pw_conv_activ_Relu_output_0_scratch0                             
                                                                                                 W: _features_stage2_unit1_pw_conv_activ_Relu_output_0_weights    int8(32x1x1x16) (20)      
                                                                                                 W: _features_stage2_unit1_pw_conv_activ_Relu_output_0_bias       int32(32) (17)            
                                                                                                 O: _features_stage2_unit1_pw_conv_activ_Relu_output_0_output     int8(1x56x56x32) (18)     
------ ---------------------------------------------------- ----- ------------ --------- ------- ---------------------------------------------------------------- ------------------------- 
6      _features_stage2_unit2_dw_conv_activ_Relu_output_0   77    Conv2D       903200    416     I: _features_stage2_unit1_pw_conv_activ_Relu_output_0_output     int8(1x56x56x32) (18)     
                                                                                                 S: _features_stage2_unit2_dw_conv_activ_Relu_output_0_scratch0                             
                                                                                                 W: _features_stage2_unit2_dw_conv_activ_Relu_output_0_weights    int8(1x3x3x32) (24)       
                                                                                                 W: _features_stage2_unit2_dw_conv_activ_Relu_output_0_bias       int32(32) (21)            
                                                                                                 O: _features_stage2_unit2_dw_conv_activ_Relu_output_0_output     int8(1x56x56x32) (22)     
------ ---------------------------------------------------- ----- ------------ --------- ------- ---------------------------------------------------------------- ------------------------- 
7      _features_stage2_unit2_pw_conv_activ_Relu_output_0   80    Conv2D       3211296   1152    I: _features_stage2_unit2_dw_conv_activ_Relu_output_0_output     int8(1x56x56x32) (22)     
                                                                                                 S: _features_stage2_unit2_pw_conv_activ_Relu_output_0_scratch0                             
                                                                                                 W: _features_stage2_unit2_pw_conv_activ_Relu_output_0_weights    int8(32x1x1x32) (28)      
                                                                                                 W: _features_stage2_unit2_pw_conv_activ_Relu_output_0_bias       int32(32) (25)            
                                                                                                 O: _features_stage2_unit2_pw_conv_activ_Relu_output_0_output     int8(1x56x56x32) (26)     
------ ---------------------------------------------------- ----- ------------ --------- ------- ---------------------------------------------------------------- ------------------------- 
8      _features_stage3_unit1_dw_conv_activ_Relu_output_0   83    Conv2D       225824    416     I: _features_stage2_unit2_pw_conv_activ_Relu_output_0_output     int8(1x56x56x32) (26)     
                                                                                                 S: _features_stage3_unit1_dw_conv_activ_Relu_output_0_scratch0                             
                                                                                                 W: _features_stage3_unit1_dw_conv_activ_Relu_output_0_weights    int8(1x3x3x32) (32)       
                                                                                                 W: _features_stage3_unit1_dw_conv_activ_Relu_output_0_bias       int32(32) (29)            
                                                                                                 O: _features_stage3_unit1_dw_conv_activ_Relu_output_0_output     int8(1x28x28x32) (30)     
------ ---------------------------------------------------- ----- ------------ --------- ------- ---------------------------------------------------------------- ------------------------- 
9      _features_stage3_unit1_pw_conv_activ_Relu_output_0   86    Conv2D       1605696   2304    I: _features_stage3_unit1_dw_conv_activ_Relu_output_0_output     int8(1x28x28x32) (30)     
                                                                                                 S: _features_stage3_unit1_pw_conv_activ_Relu_output_0_scratch0                             
                                                                                                 W: _features_stage3_unit1_pw_conv_activ_Relu_output_0_weights    int8(64x1x1x32) (36)      
                                                                                                 W: _features_stage3_unit1_pw_conv_activ_Relu_output_0_bias       int32(64) (33)            
                                                                                                 O: _features_stage3_unit1_pw_conv_activ_Relu_output_0_output     int8(1x28x28x64) (34)     
------ ---------------------------------------------------- ----- ------------ --------- ------- ---------------------------------------------------------------- ------------------------- 
10     _features_stage3_unit2_dw_conv_activ_Relu_output_0   89    Conv2D       451648    832     I: _features_stage3_unit1_pw_conv_activ_Relu_output_0_output     int8(1x28x28x64) (34)     
                                                                                                 S: _features_stage3_unit2_dw_conv_activ_Relu_output_0_scratch0                             
                                                                                                 W: _features_stage3_unit2_dw_conv_activ_Relu_output_0_weights    int8(1x3x3x64) (40)       
                                                                                                 W: _features_stage3_unit2_dw_conv_activ_Relu_output_0_bias       int32(64) (37)            
                                                                                                 O: _features_stage3_unit2_dw_conv_activ_Relu_output_0_output     int8(1x28x28x64) (38)     
------ ---------------------------------------------------- ----- ------------ --------- ------- ---------------------------------------------------------------- ------------------------- 
11     _features_stage3_unit2_pw_conv_activ_Relu_output_0   92    Conv2D       3211328   4352    I: _features_stage3_unit2_dw_conv_activ_Relu_output_0_output     int8(1x28x28x64) (38)     
                                                                                                 S: _features_stage3_unit2_pw_conv_activ_Relu_output_0_scratch0                             
                                                                                                 W: _features_stage3_unit2_pw_conv_activ_Relu_output_0_weights    int8(64x1x1x64) (44)      
                                                                                                 W: _features_stage3_unit2_pw_conv_activ_Relu_output_0_bias       int32(64) (41)            
                                                                                                 O: _features_stage3_unit2_pw_conv_activ_Relu_output_0_output     int8(1x28x28x64) (42)     
------ ---------------------------------------------------- ----- ------------ --------- ------- ---------------------------------------------------------------- ------------------------- 
12     _features_stage4_unit1_dw_conv_activ_Relu_output_0   95    Conv2D       112960    832     I: _features_stage3_unit2_pw_conv_activ_Relu_output_0_output     int8(1x28x28x64) (42)     
                                                                                                 S: _features_stage4_unit1_dw_conv_activ_Relu_output_0_scratch0                             
                                                                                                 W: _features_stage4_unit1_dw_conv_activ_Relu_output_0_weights    int8(1x3x3x64) (48)       
                                                                                                 W: _features_stage4_unit1_dw_conv_activ_Relu_output_0_bias       int32(64) (45)            
                                                                                                 O: _features_stage4_unit1_dw_conv_activ_Relu_output_0_output     int8(1x14x14x64) (46)     
------ ---------------------------------------------------- ----- ------------ --------- ------- ---------------------------------------------------------------- ------------------------- 
13     _features_stage4_unit1_pw_conv_activ_Relu_output_0   98    Conv2D       1605760   8704    I: _features_stage4_unit1_dw_conv_activ_Relu_output_0_output     int8(1x14x14x64) (46)     
                                                                                                 S: _features_stage4_unit1_pw_conv_activ_Relu_output_0_scratch0                             
                                                                                                 W: _features_stage4_unit1_pw_conv_activ_Relu_output_0_weights    int8(128x1x1x64) (52)     
                                                                                                 W: _features_stage4_unit1_pw_conv_activ_Relu_output_0_bias       int32(128) (49)           
                                                                                                 O: _features_stage4_unit1_pw_conv_activ_Relu_output_0_output     int8(1x14x14x128) (50)    
------ ---------------------------------------------------- ----- ------------ --------- ------- ---------------------------------------------------------------- ------------------------- 
14     _features_stage4_unit2_dw_conv_activ_Relu_output_0   101   Conv2D       225920    1664    I: _features_stage4_unit1_pw_conv_activ_Relu_output_0_output     int8(1x14x14x128) (50)    
                                                                                                 S: _features_stage4_unit2_dw_conv_activ_Relu_output_0_scratch0                             
                                                                                                 W: _features_stage4_unit2_dw_conv_activ_Relu_output_0_weights    int8(1x3x3x128) (56)      
                                                                                                 W: _features_stage4_unit2_dw_conv_activ_Relu_output_0_bias       int32(128) (53)           
                                                                                                 O: _features_stage4_unit2_dw_conv_activ_Relu_output_0_output     int8(1x14x14x128) (54)    
------ ---------------------------------------------------- ----- ------------ --------- ------- ---------------------------------------------------------------- ------------------------- 
15     _features_stage4_unit2_pw_conv_activ_Relu_output_0   104   Conv2D       3211392   16896   I: _features_stage4_unit2_dw_conv_activ_Relu_output_0_output     int8(1x14x14x128) (54)    
                                                                                                 S: _features_stage4_unit2_pw_conv_activ_Relu_output_0_scratch0                             
                                                                                                 W: _features_stage4_unit2_pw_conv_activ_Relu_output_0_weights    int8(128x1x1x128) (60)    
                                                                                                 W: _features_stage4_unit2_pw_conv_activ_Relu_output_0_bias       int32(128) (57)           
                                                                                                 O: _features_stage4_unit2_pw_conv_activ_Relu_output_0_output     int8(1x14x14x128) (58)    
------ ---------------------------------------------------- ----- ------------ --------- ------- ---------------------------------------------------------------- ------------------------- 
16     _features_stage4_unit3_dw_conv_activ_Relu_output_0   107   Conv2D       225920    1664    I: _features_stage4_unit2_pw_conv_activ_Relu_output_0_output     int8(1x14x14x128) (58)    
                                                                                                 S: _features_stage4_unit3_dw_conv_activ_Relu_output_0_scratch0                             
                                                                                                 W: _features_stage4_unit3_dw_conv_activ_Relu_output_0_weights    int8(1x3x3x128) (64)      
                                                                                                 W: _features_stage4_unit3_dw_conv_activ_Relu_output_0_bias       int32(128) (61)           
                                                                                                 O: _features_stage4_unit3_dw_conv_activ_Relu_output_0_output     int8(1x14x14x128) (62)    
------ ---------------------------------------------------- ----- ------------ --------- ------- ---------------------------------------------------------------- ------------------------- 
17     _features_stage4_unit3_pw_conv_activ_Relu_output_0   110   Conv2D       3211392   16896   I: _features_stage4_unit3_dw_conv_activ_Relu_output_0_output     int8(1x14x14x128) (62)    
                                                                                                 S: _features_stage4_unit3_pw_conv_activ_Relu_output_0_scratch0                             
                                                                                                 W: _features_stage4_unit3_pw_conv_activ_Relu_output_0_weights    int8(128x1x1x128) (68)    
                                                                                                 W: _features_stage4_unit3_pw_conv_activ_Relu_output_0_bias       int32(128) (65)           
                                                                                                 O: _features_stage4_unit3_pw_conv_activ_Relu_output_0_output     int8(1x14x14x128) (66)    
------ ---------------------------------------------------- ----- ------------ --------- ------- ---------------------------------------------------------------- ------------------------- 
18     _features_stage4_unit4_dw_conv_activ_Relu_output_0   113   Conv2D       225920    1664    I: _features_stage4_unit3_pw_conv_activ_Relu_output_0_output     int8(1x14x14x128) (66)    
                                                                                                 S: _features_stage4_unit4_dw_conv_activ_Relu_output_0_scratch0                             
                                                                                                 W: _features_stage4_unit4_dw_conv_activ_Relu_output_0_weights    int8(1x3x3x128) (72)      
                                                                                                 W: _features_stage4_unit4_dw_conv_activ_Relu_output_0_bias       int32(128) (69)           
                                                                                                 O: _features_stage4_unit4_dw_conv_activ_Relu_output_0_output     int8(1x14x14x128) (70)    
------ ---------------------------------------------------- ----- ------------ --------- ------- ---------------------------------------------------------------- ------------------------- 
19     _features_stage4_unit4_pw_conv_activ_Relu_output_0   116   Conv2D       3211392   16896   I: _features_stage4_unit4_dw_conv_activ_Relu_output_0_output     int8(1x14x14x128) (70)    
                                                                                                 S: _features_stage4_unit4_pw_conv_activ_Relu_output_0_scratch0                             
                                                                                                 W: _features_stage4_unit4_pw_conv_activ_Relu_output_0_weights    int8(128x1x1x128) (76)    
                                                                                                 W: _features_stage4_unit4_pw_conv_activ_Relu_output_0_bias       int32(128) (73)           
                                                                                                 O: _features_stage4_unit4_pw_conv_activ_Relu_output_0_output     int8(1x14x14x128) (74)    
------ ---------------------------------------------------- ----- ------------ --------- ------- ---------------------------------------------------------------- ------------------------- 
20     _features_stage4_unit5_dw_conv_activ_Relu_output_0   119   Conv2D       225920    1664    I: _features_stage4_unit4_pw_conv_activ_Relu_output_0_output     int8(1x14x14x128) (74)    
                                                                                                 S: _features_stage4_unit5_dw_conv_activ_Relu_output_0_scratch0                             
                                                                                                 W: _features_stage4_unit5_dw_conv_activ_Relu_output_0_weights    int8(1x3x3x128) (80)      
                                                                                                 W: _features_stage4_unit5_dw_conv_activ_Relu_output_0_bias       int32(128) (77)           
                                                                                                 O: _features_stage4_unit5_dw_conv_activ_Relu_output_0_output     int8(1x14x14x128) (78)    
------ ---------------------------------------------------- ----- ------------ --------- ------- ---------------------------------------------------------------- ------------------------- 
21     _features_stage4_unit5_pw_conv_activ_Relu_output_0   122   Conv2D       3211392   16896   I: _features_stage4_unit5_dw_conv_activ_Relu_output_0_output     int8(1x14x14x128) (78)    
                                                                                                 S: _features_stage4_unit5_pw_conv_activ_Relu_output_0_scratch0                             
                                                                                                 W: _features_stage4_unit5_pw_conv_activ_Relu_output_0_weights    int8(128x1x1x128) (84)    
                                                                                                 W: _features_stage4_unit5_pw_conv_activ_Relu_output_0_bias       int32(128) (81)           
                                                                                                 O: _features_stage4_unit5_pw_conv_activ_Relu_output_0_output     int8(1x14x14x128) (82)    
------ ---------------------------------------------------- ----- ------------ --------- ------- ---------------------------------------------------------------- ------------------------- 
22     _features_stage4_unit6_dw_conv_activ_Relu_output_0   125   Conv2D       225920    1664    I: _features_stage4_unit5_pw_conv_activ_Relu_output_0_output     int8(1x14x14x128) (82)    
                                                                                                 S: _features_stage4_unit6_dw_conv_activ_Relu_output_0_scratch0                             
                                                                                                 W: _features_stage4_unit6_dw_conv_activ_Relu_output_0_weights    int8(1x3x3x128) (88)      
                                                                                                 W: _features_stage4_unit6_dw_conv_activ_Relu_output_0_bias       int32(128) (85)           
                                                                                                 O: _features_stage4_unit6_dw_conv_activ_Relu_output_0_output     int8(1x14x14x128) (86)    
------ ---------------------------------------------------- ----- ------------ --------- ------- ---------------------------------------------------------------- ------------------------- 
23     _features_stage4_unit6_pw_conv_activ_Relu_output_0   128   Conv2D       3211392   16896   I: _features_stage4_unit6_dw_conv_activ_Relu_output_0_output     int8(1x14x14x128) (86)    
                                                                                                 S: _features_stage4_unit6_pw_conv_activ_Relu_output_0_scratch0                             
                                                                                                 W: _features_stage4_unit6_pw_conv_activ_Relu_output_0_weights    int8(128x1x1x128) (92)    
                                                                                                 W: _features_stage4_unit6_pw_conv_activ_Relu_output_0_bias       int32(128) (89)           
                                                                                                 O: _features_stage4_unit6_pw_conv_activ_Relu_output_0_output     int8(1x14x14x128) (90)    
------ ---------------------------------------------------- ----- ------------ --------- ------- ---------------------------------------------------------------- ------------------------- 
24     _features_stage5_unit1_dw_conv_activ_Relu_output_0   131   Conv2D       56576     1664    I: _features_stage4_unit6_pw_conv_activ_Relu_output_0_output     int8(1x14x14x128) (90)    
                                                                                                 S: _features_stage5_unit1_dw_conv_activ_Relu_output_0_scratch0                             
                                                                                                 W: _features_stage5_unit1_dw_conv_activ_Relu_output_0_weights    int8(1x3x3x128) (96)      
                                                                                                 W: _features_stage5_unit1_dw_conv_activ_Relu_output_0_bias       int32(128) (93)           
                                                                                                 O: _features_stage5_unit1_dw_conv_activ_Relu_output_0_output     int8(1x7x7x128) (94)      
------ ---------------------------------------------------- ----- ------------ --------- ------- ---------------------------------------------------------------- ------------------------- 
25     _features_stage5_unit1_pw_conv_activ_Relu_output_0   134   Conv2D       1605888   33792   I: _features_stage5_unit1_dw_conv_activ_Relu_output_0_output     int8(1x7x7x128) (94)      
                                                                                                 S: _features_stage5_unit1_pw_conv_activ_Relu_output_0_scratch0                             
                                                                                                 W: _features_stage5_unit1_pw_conv_activ_Relu_output_0_weights    int8(256x1x1x128) (100)   
                                                                                                 W: _features_stage5_unit1_pw_conv_activ_Relu_output_0_bias       int32(256) (97)           
                                                                                                 O: _features_stage5_unit1_pw_conv_activ_Relu_output_0_output     int8(1x7x7x256) (98)      
------ ---------------------------------------------------- ----- ------------ --------- ------- ---------------------------------------------------------------- ------------------------- 
26     _features_stage5_unit2_dw_conv_activ_Relu_output_0   137   Conv2D       113152    3328    I: _features_stage5_unit1_pw_conv_activ_Relu_output_0_output     int8(1x7x7x256) (98)      
                                                                                                 S: _features_stage5_unit2_dw_conv_activ_Relu_output_0_scratch0                             
                                                                                                 W: _features_stage5_unit2_dw_conv_activ_Relu_output_0_weights    int8(1x3x3x256) (104)     
                                                                                                 W: _features_stage5_unit2_dw_conv_activ_Relu_output_0_bias       int32(256) (101)          
                                                                                                 O: _features_stage5_unit2_dw_conv_activ_Relu_output_0_output     int8(1x7x7x256) (102)     
------ ---------------------------------------------------- ----- ------------ --------- ------- ---------------------------------------------------------------- ------------------------- 
27     _features_stage5_unit2_pw_conv_activ_Relu_output_0   140   Conv2D       3211520   66560   I: _features_stage5_unit2_dw_conv_activ_Relu_output_0_output     int8(1x7x7x256) (102)     
                                                                                                 S: _features_stage5_unit2_pw_conv_activ_Relu_output_0_scratch0                             
                                                                                                 W: _features_stage5_unit2_pw_conv_activ_Relu_output_0_weights    int8(256x1x1x256) (108)   
                                                                                                 W: _features_stage5_unit2_pw_conv_activ_Relu_output_0_bias       int32(256) (105)          
                                                                                                 O: _features_stage5_unit2_pw_conv_activ_Relu_output_0_output     int8(1x7x7x256) (106)     
------ ---------------------------------------------------- ----- ------------ --------- ------- ---------------------------------------------------------------- ------------------------- 
28     _features_final_pool_AveragePool_output_0            143   Pool         12544     0       I: _features_stage5_unit2_pw_conv_activ_Relu_output_0_output     int8(1x7x7x256) (106)     
                                                                                                 O: _features_final_pool_AveragePool_output_0_output              int8(1x1x1x256) (0)       
------ ---------------------------------------------------- ----- ------------ --------- ------- ---------------------------------------------------------------- ------------------------- 
29     output_QuantizeLinear_Input                          153   Dense        25700     26000   I: _features_final_pool_AveragePool_output_0_output              int8(1x1x1x256) (0)       
                                                                                                 S: output_QuantizeLinear_Input_scratch0                                                    
                                                                                                 W: output_QuantizeLinear_Input_weights                           int8(100x256) (114)       
                                                                                                 W: output_QuantizeLinear_Input_bias                              int32(100) (111)          
                                                                                                 O: output_QuantizeLinear_Input_output                            int8(1x100) (112)         
------ ---------------------------------------------------- ----- ------------ --------- ------- ---------------------------------------------------------------- ------------------------- 



Number of operations per c-layer
------- ------ ----------------------------------------- ------------ ------------ 
c_id    m_id   name (type)                                        #op         type 
------- ------ ----------------------------------------- ------------ ------------ 
0       2      input_Transpose (Transpose)                     75,264   smul_s8_s8 
1       62     _features_init_blo..u_output_0 (Conv2D)      2,709,512   smul_s8_s8 
2       65     _features_stage1_u..u_output_0 (Conv2D)        903,176   smul_s8_s8 
3       68     _features_stage1_u..u_output_0 (Conv2D)      1,605,648   smul_s8_s8 
4       71     _features_stage2_u..u_output_0 (Conv2D)        451,600   smul_s8_s8 
5       74     _features_stage2_u..u_output_0 (Conv2D)      1,605,664   smul_s8_s8 
6       77     _features_stage2_u..u_output_0 (Conv2D)        903,200   smul_s8_s8 
7       80     _features_stage2_u..u_output_0 (Conv2D)      3,211,296   smul_s8_s8 
8       83     _features_stage3_u..u_output_0 (Conv2D)        225,824   smul_s8_s8 
9       86     _features_stage3_u..u_output_0 (Conv2D)      1,605,696   smul_s8_s8 
10      89     _features_stage3_u..u_output_0 (Conv2D)        451,648   smul_s8_s8 
11      92     _features_stage3_u..u_output_0 (Conv2D)      3,211,328   smul_s8_s8 
12      95     _features_stage4_u..u_output_0 (Conv2D)        112,960   smul_s8_s8 
13      98     _features_stage4_u..u_output_0 (Conv2D)      1,605,760   smul_s8_s8 
14      101    _features_stage4_u..u_output_0 (Conv2D)        225,920   smul_s8_s8 
15      104    _features_stage4_u..u_output_0 (Conv2D)      3,211,392   smul_s8_s8 
16      107    _features_stage4_u..u_output_0 (Conv2D)        225,920   smul_s8_s8 
17      110    _features_stage4_u..u_output_0 (Conv2D)      3,211,392   smul_s8_s8 
18      113    _features_stage4_u..u_output_0 (Conv2D)        225,920   smul_s8_s8 
19      116    _features_stage4_u..u_output_0 (Conv2D)      3,211,392   smul_s8_s8 
20      119    _features_stage4_u..u_output_0 (Conv2D)        225,920   smul_s8_s8 
21      122    _features_stage4_u..u_output_0 (Conv2D)      3,211,392   smul_s8_s8 
22      125    _features_stage4_u..u_output_0 (Conv2D)        225,920   smul_s8_s8 
23      128    _features_stage4_u..u_output_0 (Conv2D)      3,211,392   smul_s8_s8 
24      131    _features_stage5_u..u_output_0 (Conv2D)         56,576   smul_s8_s8 
25      134    _features_stage5_u..u_output_0 (Conv2D)      1,605,888   smul_s8_s8 
26      137    _features_stage5_u..u_output_0 (Conv2D)        113,152   smul_s8_s8 
27      140    _features_stage5_u..u_output_0 (Conv2D)      3,211,520   smul_s8_s8 
28      143    _features_final_po..l_output_0 (Pool)           12,544   smul_s8_s8 
29      153    output_QuantizeLinear_Input (Dense)             25,700   smul_s8_s8 
------- ------ ----------------------------------------- ------------ ------------ 
total                                                      40,890,516 

Number of operation types
---------------- ------------ ----------- 
operation type              #           % 
---------------- ------------ ----------- 
smul_s8_s8         40,890,516      100.0% 

Complexity report (model)
------ ------------------------------------------ ------------------------- ------------------------- ------ 
m_id   name                                       c_macc                    c_rom                     c_id   
------ ------------------------------------------ ------------------------- ------------------------- ------ 
62     _features_init_block_activ_Relu_output_0   |||||||||||||      6.6%   |                  0.1%   [1]    
65     _features_stage1_unit1_dw_co..u_output_0   |||||              2.2%   |                  0.0%   [2]    
68     _features_stage1_unit1_pw_co..u_output_0   ||||||||           3.9%   |                  0.1%   [3]    
71     _features_stage2_unit1_dw_co..u_output_0   |||                1.1%   |                  0.1%   [4]    
74     _features_stage2_unit1_pw_co..u_output_0   ||||||||           3.9%   |                  0.3%   [5]    
77     _features_stage2_unit2_dw_co..u_output_0   |||||              2.2%   |                  0.2%   [6]    
80     _features_stage2_unit2_pw_co..u_output_0   |||||||||||||||    7.9%   |                  0.5%   [7]    
83     _features_stage3_unit1_dw_co..u_output_0   ||                 0.6%   |                  0.2%   [8]    
86     _features_stage3_unit1_pw_co..u_output_0   ||||||||           3.9%   |                  0.9%   [9]    
89     _features_stage3_unit2_dw_co..u_output_0   |||                1.1%   |                  0.3%   [10]   
92     _features_stage3_unit2_pw_co..u_output_0   |||||||||||||||    7.9%   |                  1.8%   [11]   
95     _features_stage4_unit1_dw_co..u_output_0   |                  0.3%   |                  0.3%   [12]   
98     _features_stage4_unit1_pw_co..u_output_0   ||||||||           3.9%   ||                 3.6%   [13]   
101    _features_stage4_unit2_dw_co..u_output_0   ||                 0.6%   |                  0.7%   [14]   
104    _features_stage4_unit2_pw_co..u_output_0   |||||||||||||||    7.9%   ||||               6.9%   [15]   
107    _features_stage4_unit3_dw_co..u_output_0   ||                 0.6%   |                  0.7%   [16]   
110    _features_stage4_unit3_pw_co..u_output_0   |||||||||||||||    7.9%   ||||               6.9%   [17]   
113    _features_stage4_unit4_dw_co..u_output_0   ||                 0.6%   |                  0.7%   [18]   
116    _features_stage4_unit4_pw_co..u_output_0   |||||||||||||||    7.9%   ||||               6.9%   [19]   
119    _features_stage4_unit5_dw_co..u_output_0   ||                 0.6%   |                  0.7%   [20]   
122    _features_stage4_unit5_pw_co..u_output_0   |||||||||||||||    7.9%   ||||               6.9%   [21]   
125    _features_stage4_unit6_dw_co..u_output_0   ||                 0.6%   |                  0.7%   [22]   
128    _features_stage4_unit6_pw_co..u_output_0   |||||||||||||||    7.9%   ||||               6.9%   [23]   
131    _features_stage5_unit1_dw_co..u_output_0   |                  0.1%   |                  0.7%   [24]   
134    _features_stage5_unit1_pw_co..u_output_0   ||||||||           3.9%   ||||||||          13.8%   [25]   
137    _features_stage5_unit2_dw_co..u_output_0   |                  0.3%   |                  1.4%   [26]   
140    _features_stage5_unit2_pw_co..u_output_0   ||||||||||||||||   7.9%   ||||||||||||||||  27.2%   [27]   
143    _features_final_pool_Average..l_output_0   |                  0.0%   |                  0.0%   [28]   
153    output_QuantizeLinear_Input                |                  0.1%   ||||||            10.6%   [29]   
------ ------------------------------------------ ------------------------- ------------------------- ------ 
macc=40,890,516 weights=244,544 act=301,060 ram_io=0
 
 Requested memory size by section - "stm32f7" target
 -------------------------------------- -------- --------- -------- --------- 
 module                                     text    rodata     data       bss 
 -------------------------------------- -------- --------- -------- --------- 
 NetworkRuntime1020_CM7_GCC.a             26,192         0        0         0 
 quantized_a025_pt_36porciento.o           2,412     1,479   13,288       352 
 quantized_a025_pt_36porciento_data.o         48        16       88         0 
 lib (toolchain)*                          2,116         0        0         0 
 -------------------------------------- -------- --------- -------- --------- 
 RT total**                               30,768     1,495   13,376       352 
 -------------------------------------- -------- --------- -------- --------- 
 weights                                       0   244,544        0         0 
 activations                                   0         0        0   301,060 
 io                                            0         0        0         0 
 -------------------------------------- -------- --------- -------- --------- 
 TOTAL                                    30,768   246,039   13,376   301,412 
 -------------------------------------- -------- --------- -------- --------- 
 *  toolchain objects (libm/libgcc*)
 ** RT AI runtime objects (kernels+infrastructure)
  
  Summary - "stm32f7" target
  --------------------------------------------------
               FLASH (ro)      %*   RAM (rw)      % 
  --------------------------------------------------
  RT total         45,639   15.7%     13,728   4.4% 
  --------------------------------------------------
  TOTAL           290,183            314,788        
  --------------------------------------------------
  *  rt/total


Generated files (7)
-------------------------------------------------------------------------------------------------------------- 
C:\Users\juanm\.stm32cubemx\quantized_a025_pt_36porciento_output\quantized_a025_pt_36porciento_data_params.h   
C:\Users\juanm\.stm32cubemx\quantized_a025_pt_36porciento_output\quantized_a025_pt_36porciento_data_params.c   
C:\Users\juanm\.stm32cubemx\quantized_a025_pt_36porciento_output\quantized_a025_pt_36porciento_data.h          
C:\Users\juanm\.stm32cubemx\quantized_a025_pt_36porciento_output\quantized_a025_pt_36porciento_data.c          
C:\Users\juanm\.stm32cubemx\quantized_a025_pt_36porciento_output\quantized_a025_pt_36porciento_config.h        
C:\Users\juanm\.stm32cubemx\quantized_a025_pt_36porciento_output\quantized_a025_pt_36porciento.h               
C:\Users\juanm\.stm32cubemx\quantized_a025_pt_36porciento_output\quantized_a025_pt_36porciento.c               
